train/save.pt (torch, 7999 bytes, 5 tensors)

weight f4 [9, 14]
00000000: 6068 3bbe c22f d9bd 27af 783d b670 35be
00000010: 7cb4 45be 3f46 813e 6545 0a3e 1d18 c3bd
00000020: 1aaa 913c d60b 01be 28bb f0ba ac76 2bbd
00000030: 5cb2 8c3e 6c07 7b3e af0f 0dbc 5238 83be
00000040: 9e5a 833c df03 30be e3e1 6b3c f9a2 34be
00000050: d307 35be ee5e 043e 7aa3 2cbb 5e71 5fbc
00000060: 9896 97bb ae10 c0bd 3885 603d 4128 a13c
00000070: a283 263e 5eee 8ebd 7926 53bd 6a11 00be
00000080: c351 793e 6b10 9c3d 5c6c fe3d c916 f4bc
00000090: b84b 37be 549d 0cbe a2fc 63bd aa95 1c3e
000000a0: 7886 50be 3003 a13d 7012 b23d d16b 5ebb
000000b0: b35c 903d bcf2 1e3e 565a 163e 7a88 50be
000000c0: 683f ae3d 9580 aabd 7711 153e b2ee 46be
000000d0: c461 7fbe 7db4 373d 78ce b6bd 1862 51be
000000e0: 1f95 46be 0119 fa3c 522b 88bd a9d9 2c3e
000000f0: 7941 5fbe 4b72 1bbd 97ed 833e a5fb a0bd
00000100: 708a 4bbd 5198 a2bc f126 4dbe e39e 093e
00000110: 0fc8 25be 3710 2dbe 4b2d 633d 99fd 073e
00000120: 955f 5bbe 8282 2ebe 05da 74be 0990 73bd
00000130: 62b6 88bc 48d2 283d 15ea cdbd 9660 2e3d
00000140: 8b35 12bc cd53 04be 62ea 2ebd f070 fe3d
00000150: 6318 d6bd bb02 82be 3d94 383e 3770 7a3e
00000160: e73e a93d b921 73be 1c34 39be 3956 473d
00000170: e4e4 0c3e a0b8 89bd c695 273e d94a 81be
00000180: d54e fa3d e7f3 4bbe 33e7 3f3e 3bbe 083e
00000190: 24d9 aabe edd7 aebe 2291 283e 49e4 0ebe
000001a0: a0a9 38be ece5 3bbe 4e73 923e 2915 a13e
000001b0: c169 903e 093a a83d 0abe d83d 0e89 b33d
000001c0: 416f 863e 5690 19bd d8c5 3c3e d4ca 2b3e
000001d0: 6af1 ea3a fa7b 0b3e a952 53be 916d 7d3d
000001e0: e09c 2e3e c2cd 4bbd 87e7 7d3e 1ee0 a2be
000001f0: 32b1 abbc ba2a 3b3d
-0.18301535 -0.10604812 0.060713913 -0.17718777 -0.1930713 0.25248906 0.13503034 -0.095260836
0.017781306 -0.12602171 -0.0018366324 -0.04186122 0.27479827 0.2451455 -0.008609696 -0.25628906
0.01603442 -0.17188977 0.014397117 -0.17640294 -0.17678766 0.12926838 -0.0026342557 -0.013637869
-0.0046261065 -0.093781814 0.054814547 0.019672515 0.16261151 -0.06979059 -0.051550362 -0.12506643
0.24347596 0.07620319 0.12423012 -0.029796021 -0.17899978 -0.13731891 -0.05566085 0.15291467
-0.20363796 0.07861936 0.08694923 -0.0033938775 0.07048931 0.15522283 0.14682898 -0.20364562
0.085081875 -0.08325306 0.14557444 -0.19426993 -0.24939638 0.04484986 -0.089260995 -0.20447576
-0.19392823 0.0305295 -0.06648888 0.16879906 -0.2180232 -0.037950795 0.25767204 -0.078604974
-0.04969257 -0.01984802 -0.20034386 0.13439517 -0.16189598 -0.16900717 0.055463117 0.13280334
-0.2142318 -0.17041972 -0.23911293 -0.059463535 -0.01668853 0.041216165 -0.10054413 0.04257258
-0.008923898 -0.12922592 -0.042703994 0.12423885 -0.1045387 -0.25392708 0.18025298 0.24456869
0.08263951 -0.23743333 -0.18086284 0.048666213 0.1375919 -0.067246675 0.16365728 -0.25252417
0.12222067 -0.1991726 0.18740539 0.13353817 -0.3336879 -0.34149113 0.16461614 -0.13954271
-0.18033457 -0.18349427 0.28603595 0.31461456 0.28205684 0.08214194 0.10583122 0.087663755
0.26256755 -0.037491165 0.18434846 0.16776592 0.001792473 0.13621512 -0.20637001 0.06187207
0.1705203 -0.049756773 0.24795352 -0.31811613 -0.020958517 0.045695044

bias f4 [9]
00000000: 05c6 c13c e88b 17be 2791 7f3d c00c 243e
00000010: ca8c c1bd f902 dabc c692 383c 3604 03be
00000020: 88ae 183e
0.023653993 -0.14799464 0.062394287 0.16020489 -0.094506815 -0.026612746 0.011265462 -0.12794575
0.14910328

weight f4 [100, 9]
00000000: 9064 6a3e 90ab 7cbe e00c e73d 0179 5abe
00000010: b05f 6abe e764 963e 4e55 b1bd 4be8 80be
00000020: 8eb9 f73c a7f5 bdbd e562 e1bd 2d1f 0bbe
00000030: 05ea 13be 510a 9bbe 2697 773e da94 ee3d
00000040: 8e0c 3e3e 5673 113e 5d5a 463c 1954 963e
00000050: dbb5 503e 952f 833e 0903 ca3d 4564 c03d
00000060: 3284 19bd 2fce 303e fefd a3be 6ad5 5cbe
00000070: 7b0b 5b3e a6d9 503a b18a 97be 70bb 91be
00000080: 7842 98be cbac 70bd 2fc9 9abd 61bc 653e
00000090: 58e8 0ebe f01b 8fbe 3c67 5cbe 7b0d 13be
000000a0: 29a8 f53d ddcb cf3d eb97 2fba eef3 943e
000000b0: 0744 d23d 71c4 80bc cc5e 84be 32bc 603d
000000c0: ec4f d0bd 1bbe c2bd 2e7e 153e 84bb cabb
000000d0: 1f30 f4bd db0b 5c3d 530a 30be eae7 63be
000000e0: 955c 4dbe 5c55 5ebe 6f8c b8bc 8a5f 9c3e
000000f0: f681 8ebe 4f6e 59be bda9 adbd 2cb3 7ebe
00000100: 0bb0 75be 2635 22be f330 803e ae94 743e
00000110: 79ed 57be 5725 b8bd a09c 3bbd c8a1 653d
00000120: 8bd6 f4bd 1368 0fbe 2487 8abe 7d5a f13d
00000130: 06ba 413e 8793 9ebe 50b9 833e 2095 3f3e
00000140: a305 063e c64e 713e 53a2 433e a177 833e
00000150: c6b0 183d 2164 6a3e 9809 823e f53d 213e
00000160: 2bfe 93be 0360 9bbd ba8e af3d cfd7 9abe
00000170: 5b57 863e 6e65 63be ff03 783e a2a2 46be
00000180: a974 9b3e 14b3 843d 4541 f4bd cf41 8ebe
00000190: 8f84 753e fe80 65be 7621 58be 1ece c33d
000001a0: 3c62 38be 83d1 01be 8ff2 933e cf2d ee3d
000001b0: 2adf fa3d aa72 923e ddf6 1c3e 9c1a 663e
000001c0: 39c1 efbd 82bd 333e 42b6 42be 134e 843e
000001d0: 7b18 da3d 1110 a03e 4a18 83be e78e 9bbe
000001e0: fc69 52be d2ca e13d dbc6 9abe ba3d 863e
000001f0: dbe5 51be 8ee5 65bc 64f9 77be cb80 45be
00000200: 1d1d 913e c200 743e 0039 bcbc 369f 8cbd
00000210: 490e 6ebe b7d0 c73c fad8 7e3e 3969 1e3e
00000220: bd52 803e ac03 7e3e 194a 08be 3610 4f3e
00000230: a2be 3fbd cd1f a53e ee16 01be dcdd 9e3d
00000240: 0558 61bd 571f c63d 50bf 913e 64ca 47be
00000250: 18e5 84bd 9de9 0cbe 4678 d93d 8deb e13c
00000260: 104b fcbd 8157 013b b65a e1bc d3e1 323e
00000270: 90f4 bbbd f69c 58be eeab 3dbe 6d09 88be
00000280: b157 da3d 4d8c 483b 6a63 23be 9a48 97be
00000290: 0c12 08be b987 60be 04e7 72be c8b5 933e
000002a0: 6a52 123e 765f 4ebd 2e87 103e 10e1 f63d
000002b0: 62b2 2abe 7972 dcbd 3a3d 4cbe c974 0c3e
000002c0: 1632 b13d 2840 873c 8b73 423e 7bf7 9d3e
000002d0: 22cd 853e f345 5e3e 91d1 833d 7860 fdbd
000002e0: f0cb b23c 9862 7bbd 8be5 483e fa55 96be
000002f0: 1d4a 0dbe 97f7 7e3b 1dde 843e 7ab2 6bbd
00000300: 6a61 53be ecf6 d7bd 73cf 8fbd b1c1 6e3e
00000310: ee78 3dbe fcfb 483d 6420 753e 3a4d 1ebe
00000320: 3032 1fbe 05df 8e3e 5e76 903e 9b45 103e
00000330: 2124 54be bb0e bc3d dec4 343e 2b4b 82be
00000340: 63a1 923d 7c46 4fbe e2d0 42be 36b8 643e
00000350: 8e14 a2bc 018f 0c3d 567c 443e d518 83be
00000360: 4d5e 353e a72d 1e3e cd58 8e3e 55f5 40be
00000370: b309 4cbe e618 96be 1a6d 9dbd b2a8 983e
00000380: c3c3 64be ac8a 60be 80a6 013e 6ebb 393e
00000390: 63fe 863d f34b 4b3d 767e 0cbe 7a14 6fbd
000003a0: 8d4a 5ebe c654 1ebc 4c37 04bb 2e8e 833e
000003b0: ae1b 95bc 7b6f 11bd 30d0 19be 6f98 0bbe
000003c0: 16b5 a63e 119c 863e ee7f 943e a5c4 d33d
000003d0: 25dc 153e de9d 883e 4e13 103e 5112 103d
000003e0: a104 7dbe 5f16 223e 4c82 0ebc d658 8ebd
000003f0: 19f4 26be f222 9a3e 6bd7 463e 5ac8 91be
0.22889924 -0.24674821 0.112817526 -0.21335222 -0.22888064 0.29373857 -0.08658849 -0.25177225
0.030239847 -0.0927537 -0.11005191 -0.13586111 -0.1444474 -0.30281308 0.24178752 0.11649485
0.18559477 0.14204153 0.012106505 0.29361036 0.20381872 0.2562224 0.0986386 0.09394125
-0.037479587 0.17266153 -0.32029718 -0.21565786 0.21391098 0.00079670025 -0.29598 -0.28463316
-0.29738212 -0.05875854 -0.07557904 0.22435142 -0.1395582 -0.27951002 -0.21523756 -0.14360611
0.11994965 0.10146306 -0.0006698358 0.29092354 0.102668814 -0.01571867 -0.25853574 0.054866977
-0.10171494 -0.09508916 0.14598915 -0.0061869044 -0.11923241 0.053722244 -0.17191438 -0.22256437
-0.20054848 -0.2171225 -0.022527901 0.3054164 -0.27833527 -0.21233486 -0.08479641 -0.24873036
-0.23992936 -0.15840587 0.25037345 0.23884842 -0.21086682 -0.08991497 -0.045803666 0.05606249
-0.11954983 -0.14004545 -0.2705623 0.117848374 0.18918619 -0.3097193 0.2572732 0.1870923
0.13088088 0.23565206 0.1910489 0.25677207 0.03727796 0.22889759 0.25397944 0.15746291
-0.28904852 -0.07586672 0.08572145 -0.30242774 0.26238522 -0.22206661 0.24220274 -0.19397977
0.30362442 0.06479469 -0.11926512 -0.27784583 0.23976348 -0.22412488 -0.21106514 0.09560798
-0.18006223 -0.12677579 0.28895995 0.11629831 0.122495964 0.28603107 0.15328546 0.22471088
-0.11706776 0.1755276 -0.19014838 0.25840816 0.106492005 0.31262258 -0.2560447 -0.30382463
-0.20548242 0.11025013 -0.3022984 0.2621897 -0.20497839 -0.014031781 -0.24216229 -0.19287412
0.28342524 0.23828414 -0.022976398 -0.068663046 -0.23247637 0.024391515 0.24887457 0.15469827
0.25063124 0.24806088 -0.13309516 0.20221028 -0.04681266 0.32250825 -0.12606403 0.0775716
-0.055015583 0.09673946 0.28466272 -0.195108 -0.06489009 -0.13760991 0.106186435 0.02757814
-0.123190045 0.0019735994 -0.027509075 0.17468958 -0.09177506 -0.21153626 -0.18522617 -0.2656969
0.10661257 0.0030601204 -0.15955892 -0.29547578 -0.13288134 -0.21926774 -0.23720938 0.28849626
0.14289251 -0.050384007 0.14114067 0.12054646 -0.1666961 -0.107640214 -0.19945231 0.13716425
0.08652131 0.016510084 0.18989389 0.30852875 0.26133066 0.21706371 0.06436456 -0.123719156
0.02182576 -0.061373323 0.19618814 -0.2936247 -0.13797803 0.00389049 0.2595071 -0.057543255
-0.2064263 -0.105451435 -0.0702199 0.23316075 -0.18503162 0.049068436 0.23938137 -0.15459147
-0.15546489 0.27904525 0.28215307 0.14089052 -0.20716907 0.09182497 0.17653224 -0.25447974
0.07159688 -0.20241731 -0.19024995 0.22335896 -0.019785192 0.034316067 0.19188055 -0.25604883
0.17711754 0.15447102 0.27802125 -0.18843587 -0.19925575 -0.2931587 -0.07686825 0.29816204
-0.22340302 -0.21927899 0.12661171 0.18137905 0.06591489 0.049632978 -0.13720116 -0.058369137
-0.21708126 -0.009663766 -0.002017456 0.25694412 -0.018201675 -0.035506707 -0.15020823 -0.13632368
0.32560033 0.26290944 0.29003853 0.10340241 0.1463476 0.26682943 0.14069864 0.035173718
-0.24708797 0.15828846 -0.008698057 -0.06950538 -0.16304053 0.30104786 0.19418113 -0.2847317

bias f4 [100]
00000000: 64a2 76be 83d2 513b b1d9 58be e07a 96be
00000010: a70b bfbc 39c6 9f3d 37d5 99bd cf5b 573e
00000020: dc79 aabd bb8f 813e 9a09 5cbe da22 1d3e
00000030: a778 593d f421 d0bd d8a7 2e3d 7abf 96be
00000040: ed5b 65be 37a7 9f3d 8f37 84be 1526 d0bd
00000050: 9550 8b3e a81a 3abe ac87 a53d 370b 6a3e
00000060: bf0b 84be f127 343e 254d 21be 38f8 9b3e
00000070: 9842 ab3d 6110 3a3e 7d25 f3bc 72bc 8eb9
00000080: d077 c4bc 838e 46be 7bea 443d b7c9 283d
00000090: ce1f d73d a15a 46be 0962 283e b6a8 2e3e
000000a0: 6f93 e23d 995a 3c3e f5b2 7bbe 7739 3d3e
000000b0: 9d37 443d 2427 7b3d 23b7 d3bd 9344 5a3e
000000c0: b358 d53d 82b7 b23c 70f3 7cbe 3344 903e
000000d0: 1c88 2abe 4512 0ebe b91d 41bd f7c9 bf3d
000000e0: d2f1 bcbd 9862 8c3e bca7 003e 9ee8 97be
000000f0: 1235 bd3d 268b 20be 1f9f e7bd d948 c9bd
00000100: 79d4 8b3c 8997 8ebd 0abb 223e d531 673e
00000110: b6ca 973e d3da 933e 0bfd b03e 7074 85be
00000120: ad78 7cbd b670 1f3e f69d 873e 3d42 21be
00000130: 0b6a 9b3e 9c4c 633e a386 2ebe 3d2f c4bd
00000140: b6b2 77be c80f 413e b633 83be 32b9 2c3e
00000150: 64b9 733e 4568 6fbe f8be 3dbc d867 793e
00000160: e68a 90bd 97c8 0ebe e3ac 293d b21a 8bbd
00000170: 9731 d4bc 9e67 283e 8759 2b3c e2f9 76be
00000180: d28d f33d 6bc6 dcbd 5c9a d13c 4618 453d
-0.24085385 0.0032016344 -0.21176793 -0.2939062 -0.023320986 0.0780148 -0.07511371 0.21031116
-0.08324024 0.2530497 -0.21488038 0.15345326 0.05309358 -0.10162726 0.042640537 -0.2944296
-0.22398348 0.077955656 -0.25823638 -0.101635136 0.27209917 -0.18174231 0.08082518 0.2285584
-0.25790212 0.17593361 -0.15752085 0.30462813 0.08362311 0.1817031 -0.029680962 -0.00027224753
-0.023982912 -0.19390301 0.04807518 0.041207995 0.10504113 -0.1937051 0.16443647 0.17056546
0.11063277 0.18393935 -0.24579985 0.18478952 0.0479046 0.061316624 -0.10337665 0.21315221
0.10417309 0.021816019 -0.24702239 0.28177032 -0.16653484 -0.13874157 -0.047147486 0.093646936
-0.09225811 0.2741897 0.12563986 -0.2966966 0.09238638 -0.15678081 -0.11309647 -0.09828348
0.017069088 -0.06962497 0.15891662 0.22577603 0.29646844 0.28877887 0.34568056 -0.26065397
-0.061638523 0.1557034 0.26487702 -0.15747924 0.30354342 0.22197193 -0.17043547 -0.095793225
-0.24189267 0.18853676 -0.2562539 0.16867521 0.2380119 -0.2337962 -0.011581175 0.2435602
-0.07057743 -0.13943706 0.041424643 -0.06792201 -0.025902553 0.16445777 0.010458357 -0.2411876
0.118922845 -0.10780033 0.0255863 0.048118852

weight f4 [1, 100]
00000000: 12b2 05bd a256 d33c a90e 8cbd f552 09bb
00000010: cf92 153e 1a0c d3bd b4dd 2dbd a98c a53d
00000020: 9e9f 4f3d 0840 8dbd 60b2 4a3d 5eae 143e
00000030: d474 163e 8d0e aabd a475 553d cb49 31bd
00000040: 5f10 86bd ee5f f5bb 72d1 b5bd cae8 4e3c
00000050: 54f4 f6bd 9c0a d9bc d54f 693d f602 c23d
00000060: a827 823d f8ba 7fbd a261 203e 2827 00bc
00000070: de22 a23d 4f12 493e 6609 4fbd 9dbd bd3d
00000080: 23b5 ba3d fb28 2d3d d11a d83c a074 9fbd
00000090: 94ad 603c 9e25 4b3d c403 06bb 83a1 363e
000000a0: dd11 e83d de2b 9d3d 7bd5 9ebd 2c37 733e
000000b0: e927 a53c 58fd dabd b3e3 983d 9dbe 183e
000000c0: b93c 503e 4a30 20bc 4d3c b7bd 10c2 c1bc
000000d0: ef16 403d 3787 213e 151e 0e3d 18f4 d23d
000000e0: dfcb 363e 2095 fcba 0458 34bc 2eba b13d
000000f0: acf3 c0bd 62c4 d83c 5144 4c3d 6bf5 1bbd
00000100: 1e28 b7bb 0fec c73d 29bb 1cbe 3888 fa3d
00000110: c0b6 debc 8e76 203d d805 cebd 9ea0 18bd
00000120: b4b0 5fbc dcf0 a8bd 27cc c9bd 6893 153d
00000130: 7022 27bd 1e56 58be 6144 ba3c e62d ad3a
00000140: 245e 2ebc cfb3 b4bd 6eca 68bd 4045 643c
00000150: 8851 b63d bfd2 b53d 5d1e c83a 72d2 b4bd
00000160: 8334 593d e088 c53d 604e 0dbd 31a2 1f3c
00000170: cac8 9bbd 7ddd 88bd 7313 83bd a45e fb3b
00000180: de6e b5bc abec 2cbd 1799 8c3d 6399 193e
-0.032640524 0.025798146 -0.06838734 -0.0020953987 0.14606784 -0.103050426 -0.04244776 0.080834694
0.050689332 -0.068969786 0.049486518 0.14519641 0.14693004 -0.083035566 0.052114144 -0.043283265
-0.06546091 -0.0074882424 -0.08877839 0.012628743 -0.12058321 -0.026494317 0.0569609 0.09473221
0.0635522 -0.062434167 0.15662244 -0.007821836 0.07916807 0.1963589 -0.050546072 0.092646815
0.0911658 0.04227541 0.026379975 -0.07785916 0.013713259 0.04959642 -0.0020449022 0.1783505
0.11331532 0.076743826 -0.07755562 0.23751515 0.020160632 -0.10692853 0.07465305 0.14916463
0.20335664 -0.009777138 -0.08947048 -0.023652107 0.04689687 0.15774237 0.034696657 0.103004634
0.17851208 -0.0019270517 -0.011007313 0.08678089 -0.09421477 0.02646083 0.04986984 -0.038075846
-0.005589499 0.097618215 -0.15305771 0.12233013 -0.027186751 0.039175563 -0.10059708 -0.03726255
-0.013652969 -0.08249065 -0.09853392 0.03651753 -0.040804327 -0.21126601 0.022737684 0.0013212531
-0.010642562 -0.08823358 -0.056833677 0.013932526 0.089022696 0.08878087 0.0015267838 -0.08829202
0.053028595 0.096452475 -0.034498572 0.009743259 -0.07606657 -0.066828705 -0.06400194 0.007671194
-0.022147592 -0.04221789 0.06865137 0.14999919
